weights.npy (npy, 1432 bytes, 1 tensors)

array f8 [163, 1]
000000 17 29 04 b8 62 3d 35 40 70 8c 59 c3 c7 29 d6 3f
       21.239787579551457 0.3463000686371691
000010 ca 77 7e 8c 5c 36 e4 bf 7b 10 89 da da af e9 3f
       -0.6316359275840508 0.8027166622419054
000020 e7 a4 91 ee 32 26 fa bf ac 52 68 7d b4 af ca 3f
       -1.6343259162043127 0.20848709224141737
000030 55 63 32 e5 a1 fe eb 3f 01 fc 8f 20 48 83 e0 bf
       0.8748330570698309 -0.5160256038651597
000040 eb cc 7b 67 ea 62 f7 bf ce f8 71 d9 f9 85 fe 3f
       -1.4616493265464736 1.9077089780762893
000050 18 06 aa d9 a9 9b d4 bf 5b 46 36 2a 13 e7 c1 3f
       -0.32200094467415985 0.13986434517987587
000060 15 86 91 34 2b a1 ac 3f 04 aa b8 c2 59 43 bf 3f
       0.0559171201391672 0.12212143901766842
000070 57 35 a6 b7 7a fb a1 bf de 0a ef 7a f2 49 a8 bf
       -0.035121760290261754 -0.047439172274172256
000080 c4 9c d7 46 53 a3 c4 bf 44 b6 6a 66 e3 3c c5 3f
       -0.16123429259389443 0.16592066288778728
000090 af 63 1d 94 e5 fa e0 3f bf 64 26 8d ba 41 ac 3f
       0.5306270497195466 0.0551889703085151
0000a0 fb 41 5d 59 19 04 98 bf fc ee 4a 92 c0 89 af 3f
       -0.02345313651977852 0.0615978411273925
0000b0 f2 6c 75 7d 1e 23 c3 bf 98 6d 6c b4 58 3a c3 3f
       -0.1495092499343183 0.15021809396499175
0000c0 5f af e5 b1 06 81 9a bf ed 0e 84 ae 97 5e c5 bf
       -0.025882820709213102 -0.16694923421174881
0000d0 69 f8 8e ae ed 2b b6 3f 10 50 69 b9 cb 34 da 3f
       0.08660779487306204 0.40947239977435945
0000e0 db 0b 59 41 f6 c8 d3 bf 03 e8 9c 82 49 b8 d6 3f
       -0.3091407430803749 0.3549979949490309
0000f0 1b cc 08 09 4d bc d0 bf 81 d6 8f 4b fb a9 d5 3f
       -0.26149297601949834 0.33849985484207684
000100 82 b2 53 4f be 3f d1 3f 4b 96 b8 88 91 87 e0 bf
       0.2695155882527517 -0.5165488882382275
000110 e0 60 7c 18 be e0 be 3f 7f e9 93 ca 74 8d c2 3f
       0.12061679933356428 0.14494190112584346
000120 fc f0 53 ba 9c 7b bd 3f a0 5d d6 f4 79 06 b6 3f
       0.11516742276211639 0.08603632190203436
000130 39 e5 89 68 12 d4 b1 3f c3 8e 8a e3 7f ea cb 3f
       0.06964221050465803 0.2180938588181701
000140 82 bc 56 37 c5 aa d2 bf b6 f3 91 b3 e5 74 bc bf
       -0.29167299656086965 -0.11115871080433135
000150 66 d3 d9 b3 b3 a2 d1 bf 15 67 32 8f c7 1c 9e 3f
       -0.2755555397373456 0.029406660189670825
000160 9b 67 1c 9f ba 79 b6 3f 7f 76 9f 7e 1c 40 dc bf
       0.087794936986397 -0.4414130436469818
000170 d6 5e 44 94 aa b9 d2 3f a1 d1 1b 05 65 08 d1 bf
       0.29258217314916857 -0.26613736628430656
000180 c6 04 ea 7f 97 99 d0 bf f3 f2 a4 6d b2 c1 e9 bf
       -0.2593744992410162 -0.8048946515551435
000190 42 c0 cb 3c c0 5a dc bf 43 c0 5a 78 cd 58 cc bf
       -0.4430389970502838 -0.22146004082378754
0001a0 9d 20 6d e0 16 4e dd bf 66 2c 89 6d 62 97 f0 bf
       -0.4578911964095001 -1.0369591025107865
0001b0 d6 ea 6c 79 47 83 ed 3f e3 8d 33 0a 04 1a 99 bf
       0.9222752925482733 -0.024513304827349713
0001c0 96 c7 07 f7 c7 fa d5 bf 9e c4 8d 16 3c 17 c9 3f
       -0.3434314644247193 0.19602156735667092
0001d0 40 41 d0 01 a3 f1 e8 3f 75 f1 81 d3 f0 2c da 3f
       0.779496673147186 0.4089929643157782
0001e0 97 62 58 4a f3 56 d6 3f 19 a3 5e 2f 5e 91 be 3f
       0.3490570283916354 0.11940563827978358
0001f0 aa fa 00 d5 3f c7 e1 3f 88 a5 64 e3 21 9c f0 3f
       0.5555724296790079 1.03811825585794
000200 68 a4 3f 4e 2f c2 71 3f 25 4b 0f 2b 1d 58 d1 3f
       0.004335579669693869 0.2710030479913022
000210 36 82 d8 28 fa 0a cd bf 9c 56 d3 cc db e8 d4 bf
       -0.2268974971239161 -0.3267125606774728
000220 c3 bd 1f 4f 42 58 6d bf d3 a1 a4 da c9 20 e4 bf
       -0.0035821242427045165 -0.6290025015232977
000230 60 9a d0 e0 2f bd d6 bf 07 67 7d 34 d1 ad d5 bf
       -0.3552970595796179 -0.33873396039926756
000240 f2 0a d1 b7 15 12 ff 3f b7 d9 40 ab df 2b d0 3f
       1.9419152431807416 0.25267783855397447
000250 2b 11 84 63 19 94 98 3f 3d f3 8c 59 6e b1 de bf
       0.02400245351692935 -0.47957953210043397
000260 c5 d8 81 da 58 dd f0 3f ad 8c 6f 85 39 09 e2 bf
       1.0540398154676478 -0.563626061073952
000270 88 ca 9f 28 e4 b6 e2 bf 6b 3b 0e e7 fe a5 ed 3f
       -0.5848255914155098 0.9265131485752652
000280 53 b1 6a 86 cd f5 d6 bf 29 a6 f8 16 51 9a f3 3f
       -0.3587526142753365 1.2251749894443356
000290 90 31 3a 2e 49 6a e6 bf bd 12 67 21 61 4b cd 3f
       -0.7004743483426399 0.22886289721477296
0002a0 2f 97 c8 93 2a 29 08 40 a2 fd d4 20 8e e8 0e c0
       3.0201007409658795 -3.8635523381232852
0002b0 eb 92 bf fc a9 7d da 3f a3 ee 44 a4 ca ed 1c 40
       0.41391992266134875 7.232218329150473
0002c0 e8 2b 24 23 15 38 22 c0 06 13 99 30 a1 86 f4 3f
       -9.109536264577358 1.2828685663564001
0002d0 3e ab 5e ee bd 1b 2e 40 93 a3 37 49 cc d7 b2 3f
       15.054183434540047 0.07360531604321201
0002e0 71 24 dd 99 f4 5f 92 bf 1a 1c 9e d5 9f 70 b7 bf
       -0.017944166079619742 -0.09156226125024639
0002f0 44 15 7d bd c4 f9 89 3f 64 6e c3 85 78 1b bc bf
       0.012683426888211564 -0.1097941710062798
000300 7f a1 32 35 78 9f bc 3f 4c 4d da 5a 20 35 9f 3f
       0.11180831240438315 0.030476098580561925
000310 d1 e9 c0 38 fc b7 b4 bf 31 19 83 f0 6c ff c4 bf
       -0.08093239198289061 -0.16404496902232205
000320 31 8e 51 07 07 cf c3 bf ff a7 f9 00 05 36 da 3f
       -0.15475547654487934 0.4095470914386396
000330 29 48 71 7b e7 87 c2 3f 78 00 ef 15 51 de e9 bf
       0.1447724678751581 -0.8083882740393298
000340 83 cd 2a 66 71 60 de bf 43 41 e1 e5 24 88 f0 3f
       -0.4746364114500567 1.0332383136447596
000350 0d cd ef 87 9f 95 f4 bf 3f c9 0b af f7 25 b0 3f
       -1.2865290937450624 0.06307933829865407
000360 95 7c d6 3d 7a f6 e5 3f 3a 7d b1 0d c7 85 e0 bf
       0.6863375861902506 -0.516330267662773
000370 3e bc e8 6a f5 6c e3 3f 1b b9 5e e5 44 ec bf bf
       0.6070506179875179 -0.12469893073896225
000380 d5 33 77 d8 bf c9 ba bf 26 b1 81 ff ba 9a 8e bf
       -0.10464095148854764 -0.014943562433665191
000390 c6 21 ba 01 15 f7 b6 3f 7a 11 0a 13 be b7 c7 bf
       0.08970767299809443 -0.18529487542776818
0003a0 e9 21 be 66 d6 dd ce 3f 8e f3 4c cc f5 ee d1 3f
       0.2411449433968891 0.2802099700091326
0003b0 da eb 1b a4 b5 12 d6 3f 0c f3 8a 11 1e 44 d2 bf
       0.3448919394137967 -0.2854075595203518
0003c0 c4 02 dd 73 d0 15 c4 3f a4 54 1a 74 3a 67 de bf
       0.1569157186259159 -0.4750505575005468
0003d0 97 36 19 3d b5 61 9d bf 9b 4e 9d dc 14 94 d7 3f
       -0.028693038801341855 0.36841317695982817
0003e0 c5 f4 06 e5 c3 ca a5 3f 89 08 a4 ae 86 a5 d6 bf
       0.04256260081045008 -0.3538529115177274
0003f0 2e 15 7c a1 0e 8a c5 bf 05 59 9c b4 c1 a5 a4 bf
       -0.16827566990847614 -0.04032712297173372
000400 6a fe ac 33 2e 2c d2 3f 7c 84 fd 0e ce 22 a6 bf
       0.2839465622564378 -0.04323429043757529
000410 be 81 46 e4 c7 8d c7 3f c7 1f c5 57 e5 86 a9 3f
       0.18401430746327024 0.04985729881678896
000420 b7 25 dd 18 5b fe c3 3f 18 94 9b 2e a5 35 d0 bf
       0.15619982446723465 -0.25327424575363144
000430 95 27 98 8c 70 b7 bd 3f 2a d6 8c 76 98 63 9f 3f
       0.11608031685332627 0.030653364406324858
000440 48 c4 d9 12 28 27 c9 bf 76 1a 71 bf 42 25 b7 bf
       -0.19650746269647557 -0.09041230367538752
000450 54 07 67 01 55 50 b5 3f d0 33 77 aa b6 1e c7 bf
       0.08325701984634054 -0.18062480281369497
000460 a4 8f e8 54 04 87 a7 3f a1 9f 75 50 0f 87 90 3f
       0.04595197235565188 0.016140212331634655
000470 e4 5d 8d b6 e5 e2 6c bf b5 6f fa 1b 88 f4 cd bf
       -0.003526161821735251 -0.23402501455427474
000480 49 c0 96 bf 9b 3f a8 3f 50 8f 30 58 18 af c8 bf
       0.04736029351931898 -0.1928434782613473
000490 c1 19 de 37 d0 9a c0 bf 33 2b 44 58 f9 e3 d0 3f
       -0.129724528578846 0.2639144288993293
0004a0 89 09 88 8a dc 59 b5 3f 4e 83 09 7c e6 0b ba bf
       0.08340242750276707 -0.1017440846276376
0004b0 14 f9 5d 5c b2 9b b6 bf 44 20 a4 f5 21 ba a5 bf
       -0.08831324343734465 -0.04243570445584102
0004c0 df bb 73 dd cd d1 89 bf 70 ce b1 d0 63 aa c2 bf
       -0.01260720092838413 -0.14582488718189124
0004d0 f7 7c 10 fa 6d 0e 91 bf e9 c2 27 f7 be cd c8 3f
       -0.016656607043953078 0.19377886837130312
0004e0 f4 e0 2d 46 da f5 c4 bf 02 e5 77 d0 f3 e7 cf bf
       -0.1637528269454901 -0.24926612547987054
0004f0 6b 6b 20 6c 04 02 a5 bf a9 89 88 99 8b 61 d7 3f
       -0.041031015585949536 0.3653286933278204
000500 47 20 e8 48 09 46 93 bf 9e d0 1e ad 4c e0 d4 bf
       -0.01882185466277544 -0.3261901560429211
000510 52 34 d5 28 36 b0 cb 3f
       0.21631505006590374
